…
 &#39;valid&#39;))\r\n    \tmodel.add(LeakyReLU(alpha=0.01))\r\n    \tmodel.add(MaxPooling2D(pool_size=pool_size2))\r\n    \r\n    \t....\r\n    \r\n    \tmodel.add(Dense(nb_classes))\r\n    \tmodel.add(Activation(&#39;softmax&#39;))\r\n    \r\n    \tprint(model.summary())\r\n    \treturn model\r\n\r\nThe code output: \r\n\r\n    _________________________________________________________________\r\n \r\n\r\n       Layer (type)                 Output Shape              Param #   \r\n        =================================================================\r\n        zero_padding2d_1 (ZeroPaddin (None, 1, 114, 94)        0         \r\n        _________________________________________________________________\r\n        conv2d_1 (Conv2D)            (None, 32, 112, 92)       320       \r\n        _________________________________________________________________\r\n        leaky_re_lu_1 (LeakyReLU)    (None, 32, 112, 92)       0         \r\n        _________________________________________________________________\r\n        max_pooling2d_1 (MaxPooling2 (None, 32, 56, 46)        0         \r\n        _________________________________________________________________\r\n        ....        \r\n        _________________________________________________________________\r\n        dense_1 (Dense)              (None, 1024)              8258560   \r\n        _________________________________________________________________\r\n        leaky_re_lu_4 (LeakyReLU)    (None, 1024)              0         \r\n        _________________________________________________________________\r\n        dropout_1 (Dropout)          (None, 1024)              0         \r\n        _________________________________________________________________\r\n        dense_2 (Dense)              (None, 40)                41000     \r\n        _________________________________________________________________\r\n        activation_1 (Activation)    (None, 40)                0         \r\n        =================================================================\r\n        Total params: 8,392,232\r\n        Trainable params: 8,392,232\r\n        Non-trainable params: 0\r\n        _________________________________________________________________\r\n        None\r\n        Train on 320 samples, validate on 80 samples\r\n        Epoch 1/20\r\n         - 18s - loss: 3.7036 
…
